 Use learning rate 0.01, momentum 0.83, 4 hidden layers, 500 neurons, loss_ categorical_crossentropy 

The shape is: (28, 28), the length is 60000.
_________________________________________________________________
Layer (type)                 Output Shape              Param #   
=================================================================
dense_1 (Dense)              (None, 500)               392500    
_________________________________________________________________
activation_1 (Activation)    (None, 500)               0         
_________________________________________________________________
dense_2 (Dense)              (None, 500)               250500    
_________________________________________________________________
activation_2 (Activation)    (None, 500)               0         
_________________________________________________________________
dense_3 (Dense)              (None, 500)               250500    
_________________________________________________________________
dense_4 (Dense)              (None, 500)               250500    
_________________________________________________________________
activation_3 (Activation)    (None, 500)               0         
_________________________________________________________________
activation_4 (Activation)    (None, 500)               0         
_________________________________________________________________
dense_5 (Dense)              (None, 10)                5010      
_________________________________________________________________
activation_5 (Activation)    (None, 10)                0         
=================================================================
Total params: 1,149,010
Trainable params: 1,149,010
Non-trainable params: 0
_________________________________________________________________
Epoch 1/20

  100/60000 [..............................] - ETA: 3:36 - loss: 2.4581 - acc: 0.1100
  300/60000 [..............................] - ETA: 1:23 - loss: 2.3793 - acc: 0.1133
…
