 Use learning rate 0.01, momentum 0.83, 4 hidden layers, 700 neurons, loss_ categorical_crossentropy 

The shape is: (28, 28), the length is 60000.
_________________________________________________________________
Layer (type)                 Output Shape              Param #   
=================================================================
dense_1 (Dense)              (None, 700)               549500    
_________________________________________________________________
activation_1 (Activation)    (None, 700)               0         
_________________________________________________________________
dense_2 (Dense)              (None, 700)               490700    
_________________________________________________________________
activation_2 (Activation)    (None, 700)               0         
_________________________________________________________________
dense_3 (Dense)              (None, 700)               490700    
_________________________________________________________________
dense_4 (Dense)              (None, 700)               490700    
_________________________________________________________________
activation_3 (Activation)    (None, 700)               0         
_________________________________________________________________
activation_4 (Activation)    (None, 700)               0         
_________________________________________________________________
dense_5 (Dense)              (None, 10)                7010      
_________________________________________________________________
activation_5 (Activation)    (None, 10)                0         
=================================================================
Total params: 2,028,610
Trainable params: 2,028,610
Non-trainable params: 0
_________________________________________________________________
Epoch 1/20

  100/60000 [..............................] - ETA: 4:37 - loss: 2.6163 - acc: 0.0300
  200/60000 [..............................] - ETA: 2:34 - loss: 2.5567 - acc: 0.0600
…
