 Use learning rate 0.01, momentum 0.83, 3 hidden layers, 500 neurons, loss_ categorical_crossentropy 

The shape is: (28, 28), the length is 60000.
_________________________________________________________________
Layer (type)                 Output Shape              Param #   
=================================================================
dense_1 (Dense)              (None, 500)               392500    
_________________________________________________________________
activation_1 (Activation)    (None, 500)               0         
_________________________________________________________________
dense_2 (Dense)              (None, 500)               250500    
_________________________________________________________________
activation_2 (Activation)    (None, 500)               0         
_________________________________________________________________
dense_3 (Dense)              (None, 500)               250500    
_________________________________________________________________
activation_3 (Activation)    (None, 500)               0         
_________________________________________________________________
dense_4 (Dense)              (None, 10)                5010      
_________________________________________________________________
activation_4 (Activation)    (None, 10)                0         
=================================================================
Total params: 898,510
Trainable params: 898,510
Non-trainable params: 0
_________________________________________________________________
Epoch 1/20

  100/60000 [..............................] - ETA: 3:13 - loss: 2.4127 - acc: 0.0800
  400/60000 [..............................] - ETA: 57s - loss: 2.3420 - acc: 0.0875 
  700/60000 [..............................] - ETA: 38s - loss: 2.3289 - acc: 0.1014
…
