 Use learning rate 0.01, momentum 0.83, 2 hidden layers, 500 neurons, loss_ categorical_crossentropy 

The shape is: (28, 28), the length is 60000.
_________________________________________________________________
Layer (type)                 Output Shape              Param #   
=================================================================
dense_1 (Dense)              (None, 500)               392500    
_________________________________________________________________
activation_1 (Activation)    (None, 500)               0         
_________________________________________________________________
dense_2 (Dense)              (None, 500)               250500    
_________________________________________________________________
activation_2 (Activation)    (None, 500)               0         
_________________________________________________________________
dense_3 (Dense)              (None, 10)                5010      
_________________________________________________________________
activation_3 (Activation)    (None, 10)                0         
=================================================================
Total params: 648,010
Trainable params: 648,010
Non-trainable params: 0
_________________________________________________________________
Epoch 1/20

  100/60000 [..............................] - ETA: 3:46 - loss: 2.7193 - acc: 0.0900
  300/60000 [..............................] - ETA: 1:26 - loss: 2.6465 - acc: 0.1100
  700/60000 [..............................] - ETA: 41s - loss: 2.4634 - acc: 0.1043 
…
