 Use learning rate 0.01, momentum 0.83, 2 hidden layers, 500 neurons, loss_ categorical_crossentropy 

The shape is: (28, 28), the length is 60000.
_________________________________________________________________
Layer (type)                 Output Shape              Param #   
=================================================================
dense_1 (Dense)              (None, 500)               392500    
_________________________________________________________________
activation_1 (Activation)    (None, 500)               0         
_________________________________________________________________
dense_2 (Dense)              (None, 500)               250500    
_________________________________________________________________
activation_2 (Activation)    (None, 500)               0         
_________________________________________________________________
dense_3 (Dense)              (None, 10)                5010      
_________________________________________________________________
activation_3 (Activation)    (None, 10)                0         
=================================================================
Total params: 648,010
Trainable params: 648,010
Non-trainable params: 0
_________________________________________________________________
Epoch 1/20

  100/60000 [..............................] - ETA: 2:45 - loss: 2.6829 - acc: 0.1100
  500/60000 [..............................] - ETA: 40s - loss: 2.4404 - acc: 0.1320 
  900/60000 [..............................] - ETA: 26s - loss: 2.3969 - acc: 0.1322
…
