 Use 500. learning rate 3, categorical_crossentropy hidden layers, 0.001 neurons 

The shape is: (28, 28), the length is 60000.
_________________________________________________________________
Layer (type)                 Output Shape              Param #   
=================================================================
dense_1 (Dense)              (None, 500)               392500    
_________________________________________________________________
activation_1 (Activation)    (None, 500)               0         
_________________________________________________________________
dense_2 (Dense)              (None, 500)               250500    
_________________________________________________________________
activation_2 (Activation)    (None, 500)               0         
_________________________________________________________________
dense_3 (Dense)              (None, 500)               250500    
_________________________________________________________________
activation_3 (Activation)    (None, 500)               0         
_________________________________________________________________
dense_4 (Dense)              (None, 10)                5010      
_________________________________________________________________
activation_4 (Activation)    (None, 10)                0         
=================================================================
Total params: 898,510
Trainable params: 898,510
Non-trainable params: 0
_________________________________________________________________
Epoch 1/20

  100/60000 [..............................] - ETA: 2:41 - loss: 2.5600 - acc: 0.0700
  400/60000 [..............................] - ETA: 49s - loss: 2.5571 - acc: 0.0725 
  700/60000 [..............................] - ETA: 33s - loss: 2.5123 - acc: 0.0786
…
