 Use 300. learning rate 3, categorical_crossentropy hidden layers, 0.01 neurons 

The shape is: (28, 28), the length is 60000.
_________________________________________________________________
Layer (type)                 Output Shape              Param #   
=================================================================
dense_1 (Dense)              (None, 300)               235500    
_________________________________________________________________
activation_1 (Activation)    (None, 300)               0         
_________________________________________________________________
dense_2 (Dense)              (None, 300)               90300     
_________________________________________________________________
activation_2 (Activation)    (None, 300)               0         
_________________________________________________________________
dense_3 (Dense)              (None, 300)               90300     
_________________________________________________________________
activation_3 (Activation)    (None, 300)               0         
_________________________________________________________________
dense_4 (Dense)              (None, 10)                3010      
_________________________________________________________________
activation_4 (Activation)    (None, 10)                0         
=================================================================
Total params: 419,110
Trainable params: 419,110
Non-trainable params: 0
_________________________________________________________________
Epoch 1/20

  100/60000 [..............................] - ETA: 2:21 - loss: 2.3864 - acc: 0.0900
  700/60000 [..............................] - ETA: 24s - loss: 2.3529 - acc: 0.1014 
 1300/60000 [..............................] - ETA: 15s - loss: 2.3354 - acc: 0.1008
…
