 Use learning rate 0.01, momentum 0.83, 4 hidden layers, 300 neurons, loss_ categorical_crossentropy 

The shape is: (28, 28), the length is 60000.
_________________________________________________________________
Layer (type)                 Output Shape              Param #   
=================================================================
dense_1 (Dense)              (None, 300)               235500    
_________________________________________________________________
activation_1 (Activation)    (None, 300)               0         
_________________________________________________________________
dense_2 (Dense)              (None, 300)               90300     
_________________________________________________________________
activation_2 (Activation)    (None, 300)               0         
_________________________________________________________________
dense_3 (Dense)              (None, 300)               90300     
_________________________________________________________________
dense_4 (Dense)              (None, 300)               90300     
_________________________________________________________________
activation_3 (Activation)    (None, 300)               0         
_________________________________________________________________
activation_4 (Activation)    (None, 300)               0         
_________________________________________________________________
dense_5 (Dense)              (None, 10)                3010      
_________________________________________________________________
activation_5 (Activation)    (None, 10)                0         
=================================================================
Total params: 509,410
Trainable params: 509,410
Non-trainable params: 0
_________________________________________________________________
Epoch 1/20

  100/60000 [..............................] - ETA: 3:04 - loss: 2.6327 - acc: 0.1000
  600/60000 [..............................] - ETA: 36s - loss: 2.4460 - acc: 0.0867 
  900/60000 [..............................] - ETA: 28s - loss: 2.4069 - acc: 0.0956
…
