_________________________________________________________________
Layer (type)                 Output Shape              Param #   
=================================================================
conv2d_1 (Conv2D)            (None, 28, 28, 16)        160       
_________________________________________________________________
activation_1 (Activation)    (None, 28, 28, 16)        0         
_________________________________________________________________
max_pooling2d_1 (MaxPooling2 (None, 14, 14, 16)        0         
_________________________________________________________________
conv2d_2 (Conv2D)            (None, 14, 14, 32)        4640      
_________________________________________________________________
activation_2 (Activation)    (None, 14, 14, 32)        0         
_________________________________________________________________
max_pooling2d_2 (MaxPooling2 (None, 7, 7, 32)          0         
_________________________________________________________________
flatten_1 (Flatten)          (None, 1568)              0         
_________________________________________________________________
dense_1 (Dense)              (None, 150)               235350    
_________________________________________________________________
activation_3 (Activation)    (None, 150)               0         
_________________________________________________________________
dense_2 (Dense)              (None, 150)               22650     
_________________________________________________________________
activation_4 (Activation)    (None, 150)               0         
_________________________________________________________________
dense_3 (Dense)              (None, 10)                1510      
_________________________________________________________________
activation_5 (Activation)    (None, 10)                0         
=================================================================
Total params: 264,310
Trainable params: 264,310
Non-trainable params: 0
_________________________________________________________________
Epoch 1/15

  120/60000 [..............................] - ETA: 2:34 - loss: 14.5639 - acc: 0.0667
  240/60000 [..............................] - ETA: 1:49 - loss: 13.9589 - acc: 0.0667
  360/60000 [..............................] - ETA: 1:26 - loss: 13.6725 - acc: 0.0861
…
