_________________________________________________________________
Layer (type)                 Output Shape              Param #   
=================================================================
conv2d_1 (Conv2D)            (None, 28, 28, 32)        320       
_________________________________________________________________
activation_1 (Activation)    (None, 28, 28, 32)        0         
_________________________________________________________________
max_pooling2d_1 (MaxPooling2 (None, 14, 14, 32)        0         
_________________________________________________________________
conv2d_2 (Conv2D)            (None, 14, 14, 64)        18496     
_________________________________________________________________
activation_2 (Activation)    (None, 14, 14, 64)        0         
_________________________________________________________________
max_pooling2d_2 (MaxPooling2 (None, 7, 7, 64)          0         
_________________________________________________________________
conv2d_3 (Conv2D)            (None, 7, 7, 128)         73856     
_________________________________________________________________
activation_3 (Activation)    (None, 7, 7, 128)         0         
_________________________________________________________________
max_pooling2d_3 (MaxPooling2 (None, 3, 3, 128)         0         
_________________________________________________________________
flatten_1 (Flatten)          (None, 1152)              0         
_________________________________________________________________
dense_1 (Dense)              (None, 200)               230600    
_________________________________________________________________
activation_4 (Activation)    (None, 200)               0         
_________________________________________________________________
dense_2 (Dense)              (None, 10)                2010      
_________________________________________________________________
activation_5 (Activation)    (None, 10)                0         
=================================================================
Total params: 325,282
Trainable params: 325,282
Non-trainable params: 0
_________________________________________________________________
_________________________________________________________________
Layer (type)                 Output Shape              Param #   
=================================================================
conv2d_1 (Conv2D)            (None, 28, 28, 32)        320       
_________________________________________________________________
activation_1 (Activation)    (None, 28, 28, 32)        0         
_________________________________________________________________
max_pooling2d_1 (MaxPooling2 (None, 14, 14, 32)        0         
_________________________________________________________________
conv2d_2 (Conv2D)            (None, 14, 14, 64)        18496     
_________________________________________________________________
activation_2 (Activation)    (None, 14, 14, 64)        0         
_________________________________________________________________
max_pooling2d_2 (MaxPooling2 (None, 7, 7, 64)          0         
_________________________________________________________________
conv2d_3 (Conv2D)            (None, 7, 7, 128)         73856     
_________________________________________________________________
activation_3 (Activation)    (None, 7, 7, 128)         0         
_________________________________________________________________
max_pooling2d_3 (MaxPooling2 (None, 3, 3, 128)         0         
_________________________________________________________________
flatten_2 (Flatten)          (None, 1152)              0         
_________________________________________________________________
dense_3 (Dense)              (None, 100)               115300    
_________________________________________________________________
activation_6 (Activation)    (None, 100)               0         
_________________________________________________________________
dense_4 (Dense)              (None, 2)                 202       
_________________________________________________________________
activation_7 (Activation)    (None, 2)                 0         
=================================================================
Total params: 208,174
Trainable params: 115,502
Non-trainable params: 92,672
_________________________________________________________________
Epoch 1/5

  100/12665 [..............................] - ETA: 57s - loss: 0.3683 - acc: 0.3600
  200/12665 [..............................] - ETA: 36s - loss: 0.2424 - acc: 0.6450
  300/12665 [..............................] - ETA: 28s - loss: 0.1802 - acc: 0.7567
…
