The total of data x_train  is 60000, size is 28 x 28.
The total of data x_test is 10000, size is 28 x 28.
Total training sample is 60000, (12665, 784) of which is 0 and 1.
Total testing sample is 10000, (2115, 784) of which is 0 and 1.
So the sample's distributions is uniform that.

 Summary of model_0_to_9: 
 
_________________________________________________________________
Layer (type)                 Output Shape              Param #   
=================================================================
dense_1 (Dense)              (None, 500)               392500    
_________________________________________________________________
activation_1 (Activation)    (None, 500)               0         
_________________________________________________________________
dense_2 (Dense)              (None, 500)               250500    
_________________________________________________________________
activation_2 (Activation)    (None, 500)               0         
_________________________________________________________________
dense_3 (Dense)              (None, 10)                5010      
_________________________________________________________________
activation_3 (Activation)    (None, 10)                0         
=================================================================
Total params: 648,010
Trainable params: 648,010
Non-trainable params: 0
_________________________________________________________________

 Summary of model_0_to_1: 
 
_________________________________________________________________
Layer (type)                 Output Shape              Param #   
=================================================================
dense_1 (Dense)              (None, 500)               392500    
_________________________________________________________________
activation_1 (Activation)    (None, 500)               0         
_________________________________________________________________
dense_2 (Dense)              (None, 500)               250500    
_________________________________________________________________
activation_2 (Activation)    (None, 500)               0         
_________________________________________________________________
dense_4 (Dense)              (None, 2)                 1002      
_________________________________________________________________
activation_4 (Activation)    (None, 2)                 0         
=================================================================
Total params: 644,002
Trainable params: 644,002
Non-trainable params: 0
_________________________________________________________________
>> We can find that except the output layer, the name of the other hidden layers are the same.

But the "Trainable params" is 644002 and "Total params" is 644002. Means that the whole model are trained again. We want to use the same params of the hiiden layers to train the new model.
 
Use the attribute trainable = False to not to re-train the model.
 
The model summary is: 
_________________________________________________________________
Layer (type)                 Output Shape              Param #   
=================================================================
dense_1 (Dense)              (None, 500)               392500    
_________________________________________________________________
activation_1 (Activation)    (None, 500)               0         
_________________________________________________________________
dense_2 (Dense)              (None, 500)               250500    
_________________________________________________________________
activation_2 (Activation)    (None, 500)               0         
_________________________________________________________________
dense_4 (Dense)              (None, 2)                 1002      
_________________________________________________________________
activation_4 (Activation)    (None, 2)                 0         
=================================================================
Total params: 644,002
Trainable params: 1,002
Non-trainable params: 643,000
_________________________________________________________________
The trainable params reduce from 644002 to 1002 which is params of the output layer.

Epoch 1/5

  100/12665 [..............................] - ETA: 19s - loss: 0.3401 - acc: 0.4400
  600/12665 [>.............................] - ETA: 4s - loss: 0.2702 - acc: 0.5383 
…
